data.pth (torch, 2775 bytes, 6 tensors)

l1.weight f4 [8, 8]
000000 78 18 99 3d d4 b8 b2 be 3c 27 71 3e 52 ae 75 be
       0.0747537 -0.34906638 0.23550123 -0.23992279
000010 56 bc a5 be 74 71 53 3e b4 da 99 be 74 de 3b be
       -0.3237025 0.20648748 -0.3004967 -0.18346578
000020 fb 42 fe 3e f1 41 85 be 81 2e ab be b1 ea e8 3e
       0.49660477 -0.26026872 -0.33433917 0.45491555
000030 ab db 0c 3f 69 89 07 3d 56 a0 b9 3e e6 3c 5b 3e
       0.55022687 0.03309003 0.3625514 0.2140995
000040 58 01 a3 3e d0 c2 71 3e 8d de b3 be 31 84 27 3f
       0.31836963 0.23609471 -0.3513073 0.65436083
000050 99 b7 93 3e 53 93 04 be 0e 2b b0 3e 2d c8 be 3e
       0.2885101 -0.12946825 0.34407848 0.37262097
000060 47 60 25 3e 78 ab b6 bd 89 65 15 bd 84 e2 13 be
       0.16150008 -0.08919424 -0.036473785 -0.14441878
000070 31 42 ea bc c0 af f7 3d 81 92 ba 3e 0f e0 78 3e
       -0.028596016 0.120940685 0.364399 0.24304222
000080 65 0e 32 be 65 1f 11 3e 4e 26 82 be 7f 95 1c 3e
       -0.17388304 0.14172132 -0.2541985 0.15291403
000090 04 01 cd 3e 28 55 c2 be db a0 42 3f d1 c0 3a 3e
       0.40039837 -0.37955594 0.76026696 0.18237616
0000a0 8f 5b be 3e cb ab 04 bf 44 85 4f be 7d 53 75 3e
       0.3717923 -0.51824635 -0.2026568 0.2395763
0000b0 80 0a db 3d 7c 77 f2 3d 8a 56 0d 3f 99 24 0f 3f
       0.10695362 0.11839196 0.55210173 0.5591522
0000c0 b7 41 05 be 68 b8 f2 3d f0 10 b0 bc 36 99 54 be
       -0.1301335 0.11851579 -0.021492451 -0.2076157
0000d0 d8 e8 1c bd b6 ea 99 be fa ca 8f 3d 78 7a 70 3e
       -0.038307995 -0.30061883 0.070211366 0.23484218
0000e0 a2 5d 33 3e 12 9d a3 be ce 29 b0 be e2 b2 c1 3d
       0.17516187 -0.31955773 -0.34406894 0.09457947
0000f0 9d 54 40 bd 40 b1 d7 3b 45 59 7d be 7b 72 27 be
       -0.046955694 0.006582409 -0.24741085 -0.16352265

l1.bias f4 [8]
000000 3e 46 99 3e 06 e8 0e 3f 20 d2 70 3e e7 a5 26 3e
       0.29936403 0.5582279 0.23517656 0.16274224
000010 ed d1 f8 3e 1e d8 17 3f 2b a3 ae bd ed 41 a1 bd
       0.4859766 0.59314144 -0.085272156 -0.078739025

l2.weight f4 [8, 8]
000000 48 b6 3f 3d 60 b2 62 bd 68 b3 55 bd e0 15 24 be
       0.046804696 -0.055345893 -0.05217305 -0.1602397
000010 00 d6 0b 3c ff f9 94 be 8f 00 85 3e 14 25 cb 3d
       0.008534908 -0.29096982 0.2597699 0.099191815
000020 cc 32 8d be 36 3a ac 3e 50 8a 20 3f e2 28 ed bc
       -0.27577817 0.3363816 0.6271105 -0.028950159
000030 1e be 8a 3e f2 32 ee 3e d3 39 75 3e cb ba 44 3e
       0.27098173 0.46523243 0.2394784 0.19211881
000040 ac 28 d5 be d9 d8 00 3e 09 02 0c 3f 22 62 29 3e
       -0.41632593 0.12582721 0.54690605 0.16541341
000050 66 79 41 3f 5f d2 b7 3e a2 ec 06 be c4 d8 81 be
       0.75575864 0.35902688 -0.13176206 -0.25360692
000060 5f 00 94 be 65 49 9f 3d 80 51 1b be 84 7b 09 be
       -0.28906533 0.07777671 -0.15167809 -0.13426024
000070 b2 20 77 3e a5 d6 01 bd d4 76 9a bd c0 72 4f 3c
       0.24133566 -0.03169884 -0.07542196 0.012661636
000080 da 3a 13 be c6 e1 09 3f 8a 17 08 3f 02 4e d9 3d
       -0.14377919 0.5386013 0.5316092 0.10610582
000090 b6 5a 0f 3f a8 e8 df 3e 6d c9 87 be 7b 64 99 be
       0.5599779 0.4373219 -0.26520863 -0.29959473
0000a0 6a 27 87 3e 84 32 92 bd 46 05 e9 bd 8f 99 18 bd
       0.26397258 -0.07138541 -0.11377959 -0.03725582
0000b0 aa 9f 08 3e c0 f2 28 bc 80 59 2b 3d 08 e2 a5 3d
       0.13342157 -0.010311782 0.0418334 0.08099753
0000c0 c9 11 21 3e 25 08 d0 3e ba 1b 11 3f 6d 7e 54 bd
       0.15729441 0.40631214 0.5668293 -0.05187838
0000d0 1c 15 a0 3e ca 12 06 3f ee 42 58 3e 02 0a 5d be
       0.31266105 0.5237242 0.21119282 -0.21585849
0000e0 cb ce 10 3e da 1a b3 3d 46 7c 6a be 9a 9d a2 3d
       0.14141385 0.08745356 -0.22898969 0.07940216
0000f0 60 f2 50 3c b0 f2 51 3d 08 b4 99 be d7 0f 8b 3e
       0.012753099 0.051256835 -0.30020165 0.27160522

l2.bias f4 [8]
000000 34 a4 d1 bd 8f a0 da 3d c7 73 06 3e 30 dd 35 be
       -0.102363974 0.10675155 0.13130103 -0.17760158
000010 37 0c 16 3d 9f e7 dd bd b8 ac 68 bd 25 ee 37 be
       0.036632743 -0.10835194 -0.056805342 -0.17961939

l3.weight f4 [2, 8]
000000 86 60 b3 be c7 06 64 bd 68 da 6a bf b2 45 ba 3d
       -0.3503458 -0.055670526 -0.9173951 0.090953246
000010 71 28 e1 be e0 16 df bc df 50 f0 be 53 44 0c be
       -0.43976167 -0.027232587 -0.469367 -0.13697939
000020 d0 04 33 3d a8 47 17 3f 18 0b d3 3e 7b 49 7c bd
       0.04370576 0.59093714 0.412194 -0.061593514
000030 fa 33 12 3f 50 f8 ab 3e 0b 05 0f 3f 98 b0 06 3e
       0.5711056 0.33587885 0.5586707 0.13153303

l3.bias f4 [2]
000000 af a1 f5 3e 09 84 37 bf
       0.47974917 -0.71685845
