data.pth (torch, 63767 bytes, 6 tensors)

l1.weight f4 [8, 645]
00000000: 463b 583f 1281 b83f a44a 013f 4579 3a40
00000010: fa4a 0440 af41 a0be cebc 0840 4de7 c73f
00000020: 256d 843f 0231 1f40 5a04 ae3e 240e 973f
00000030: 8c2e b43f 5cfe c73f 24f4 1540 619e ee3f
00000040: 5db3 ce3f a19d a13f 2e5a 663f b584 e840
00000050: b761 7a40 8f4a dd3f d3a3 9c40 d29b c13e
00000060: 8108 9c40 2bea d13f 62fc 1b40 e0e5 9240
00000070: eaeb 0140 d93b 3840 2cf5 b340 fe7e 2540
00000080: d5fa a440 e845 9f3f 77f1 b040 00bf 1e40
00000090: 6c71 0b40 1662 0d3f 742b 1740 a7e1 d53e
000000a0: b3f1 2140 4723 9f40 f4bf 0540 7ebd 8b40
000000b0: 7f6c 1740 46aa a640 eab5 c440 2d52 0e40
000000c0: c642 9140 06ac c140 d7f1 393f 2886 1640
000000d0: 5a66 8440 644f a33f ccd6 b040 97bf 9640
000000e0: e059 0b40 58e4 5340 eec3 b63f 86e5 8340
000000f0: 03ed 1a3f 85bc 823f 7066 2d40 5f1e 1b40
00000100: 72c5 6340 8d79 b83e 3024 9b40 1ad1 c040
00000110: 5057 c640 fe55 a03f da3e 0640 12f4 ad40
00000120: 6c32 4b40 280b a140 2946 963f 7ff9 a240
00000130: dd1e dc3f 13bb ff3f daed b140 fda9 8140
00000140: bdd6 863f e396 1040 b81f 2640 1522 073f
00000150: 369b 533f 99a2 bf40 d28c eb40 8655 4740
00000160: 13ce 0e3f 6115 9140 f98b 0840 f435 b340
00000170: 6fe5 4a40 f5d9 2340 2a10 aa40 a43b d03f
00000180: 97d9 8640 017c 4140 bacc 6b3e 6b8d 963f
00000190: ebde 8b40 28e9 753f 64ae b83f 4ec7 fd3e
000001a0: 1d7e da3f 1c9f 9240 d3ed 603e 3210 823f
000001b0: 67bf 2d3f 8e18 1a3f 3c52 d33e 912f f83f
000001c0: 7a0f 3f3f 99c3 a640 f34e 8c3f fa3c fa40
000001d0: d5d0 5f40 7855 2a40 dde0 1540 a17f 353f
000001e0: 0b95 0440 983e b93f 5c9b 5940 9093 a83f
000001f0: 18cb bbbe 6ed5 883f 01e6 f93d d90a ca40
00000200: 5626 4240 6181 abbe baa2 80bf 6ce9 2240
00000210: b478 0040 de25 f33f a169 7a40 0ee7 e440
00000220: 3368 1240 4760 7d40 e84c b13f ef8d 9a40
00000230: 4b8a 0d3f f480 2b40 b3d1 873f ce71 903f
00000240: 7966 7940 869f c03e f5df 8b40 4e69 b240
00000250: 6da6 9e3f c965 453e 475c 4240 5de3 c83e
00000260: ecb1 633e 8612 aa40 c94b bd3f e7c1 fc3f
00000270: 58b3 b93e 057a 1d3f f17b b540 0900 a83f
00000280: ef5b c33f 39b6 bc3f 3b6c 8e3e f09c 9c3e
00000290: 029e 1c3f 9845 4d40 0c0a 363e 24ba 3a40
000002a0: 2062 8a3e 3859 b93f 2091 3a3e 1ca1 643f
000002b0: 6fe7 4f3f 6e48 9c3f 8b27 9a3f e35a c93e
000002c0: 181d b840 77b3 dc3f 4afd 3e40 dd65 3e3f
000002d0: de42 2840 bb41 563f 8185 0340 91b8 78be
000002e0: f1fc eb3f 4c91 2e40 64cc 5d40 4eaf 8240
000002f0: 5dc3 0240 ca44 f33f 9c51 9d3f d61b 6c40
00000300: 0a73 bd40 ddcf b040 1e9f 9b40 fa84 2040
00000310: 331a 7140 a79d 9a3f 7d26 1840 3351 1e40
00000320: fea2 033f 088a c240 1a12 eabd 83a0 953d
00000330: ad58 2440 95ae 5040 06b4 6240 4b5b 743f
00000340: 5a9b b140 443f 9640 490c 9c40 7a56 3440
00000350: 2d9a 3b40 6024 8a40 f43e 5340 cd32 0040
00000360: b53e 4440 6486 da3f 31f3 dc40 3d6a 7040
00000370: 685a 5e40 d4a1 4040 e8aa 2740 c537 d73f
00000380: 31ba 9740 c059 b63f 7cb1 9d40 e52b 6640
00000390: f167 b040 e260 3740 b604 d140 ff90 1440
000003a0: a68c 3e40 fe39 4040 3283 4f3e 70c2 4740
000003b0: ca92 c63e d9ab 423f 2b71 34bf 9176 ea3e
000003c0: c3e0 1b40 7670 6740 8813 0d40 d663 dc3f
000003d0: bdbd 313f 5e4c 3f40 4dfb d23f 0cac 663f
000003e0: 0ac0 ad40 51e3 8740 fcfa b140 146a ba3e
000003f0: 51f3 9540 91ad 2e3e b662 803e ba02 5e40
0.84465444 1.4414389 0.5050452 2.9136517 2.0670762 -0.31300113 2.1365237 1.5617462
1.0345808 2.4873662 0.33987695 1.180119 1.4076705 1.5624499 2.3430262 1.8642083
1.6148487 1.262623 0.89981353 7.2661996 3.912214 1.7288378 4.894998 0.37814194
4.876038 1.6399587 2.4372792 4.590561 2.030024 2.8786528 5.623678 2.585876
5.155619 1.2443209 5.5294757 2.4804077 2.1787977 0.5522779 2.3620272 0.41773722
2.5303771 4.9730563 2.089841 4.3668814 2.365997 5.2082853 6.1472063 2.2237656
4.539401 6.052249 0.72634643 2.3519382 4.137494 1.2758603 5.5262203 4.7108874
2.1773605 3.310812 1.4278543 4.121768 0.605179 1.0213782 2.7093773 2.4237287
3.558926 0.36030236 4.8481674 6.025525 6.1981583 1.2526243 2.0975862 5.4360437
3.1749525 5.032612 1.1740161 5.092956 1.7196919 1.9978966 5.5602846 4.0520005
1.0534283 2.2592094 2.595686 0.5278638 0.8265871 5.9885983 7.36094 3.114595
0.55783194 4.5338597 2.1335433 5.600336 3.1702535 2.560178 5.314473 1.6268201
4.2140613 3.0231936 0.23027316 1.1761907 4.3709617 0.96058893 1.442822 0.4956612
1.7069737 4.5819225 0.21965723 1.0161192 0.6787018 0.6019372 0.41273677 1.9389516
0.7463299 5.2113767 1.0961593 7.8199434 3.497121 2.6614666 2.3418496 0.7089787
2.0715969 1.4472227 3.4001074 1.3170033 -0.36678386 1.0690134 0.12202073 6.313824
3.0335898 -0.33497146 -1.004966 2.545497 2.0073671 1.8995931 3.912697 7.153205
2.2876098 3.9590013 1.3851595 4.829826 0.55289143 2.6797457 1.061087 1.128473
3.8968794 0.37621707 4.3710885 5.5753546 1.2394539 0.19277109 3.0368822 0.39235964
0.2223584 5.314761 1.4788753 1.9746674 0.3626964 0.6151431 5.6713796 1.3125011
1.5262431 1.474311 0.27816948 0.30588484 0.611786 3.2073727 0.1777727 2.9176111
0.27027988 1.4480352 0.18219423 0.89308333 0.81212515 1.2209604 1.2043318 0.39327154
5.7535515 1.7242268 2.9842095 0.7437418 2.6290812 0.83694047 2.0550234 -0.24289156
1.8436567 2.7276182 3.4656 4.0838995 2.043174 1.9005368 1.229053 3.689199
5.920293 5.525374 4.8631735 2.5081162 3.767224 1.2079362 2.3773491 2.473706
0.5142058 6.0793495 -0.11429234 0.07306006 2.5679123 3.2606556 3.5422378 0.954518
5.550214 4.695223 4.8764997 2.817778 2.9312851 4.3169403 3.3007174 2.0031006
3.0663273 1.7072263 6.9046865 3.7564843 3.474268 3.0098772 2.6198063 1.6813895
4.7414784 1.424614 4.9279156 3.596429 5.512688 2.8652883 6.531825 2.3213499
2.9773345 3.0035396 0.20264891 3.1212425 0.38783866 0.7604347 -0.7048518 0.45793584
2.4355934 3.616239 2.204317 1.7217968 0.6943014 2.989036 1.6482941 0.9010627
5.4296923 4.2464986 5.5618877 0.36409056 4.6859517 0.17058398 0.2507531 3.4689164

l1.bias f4 [8]
00000000: 063f b03f e87e 6b3f 8620 223f 17ac d63f
00000010: e72e d33e 69ed 133f b9d8 773f fb10 6d3f
1.3769233 0.9199052 0.63330877 1.6771268 0.4124672 0.57784134 0.9681507 0.92604035

l2.weight f4 [8, 8]
00000000: 4f27 f840 f754 fb3e 90ed 1ec0 7de8 d540
00000010: a8af a73f bf9e 5dc0 2dd8 35c0 6b8a 18c0
00000020: cbd3 8540 19c9 1240 6e5d 93bf e5ee 56bf
00000030: 90f1 7dc0 6c8a af3f 253d f9bf a43c 443f
00000040: 647f 9b40 24de 49c0 c542 8dbf c1c2 043e
00000050: 3b8f 863e b5eb 6840 370e e43f 6149 0640
00000060: c044 bb3f 4ddd 23bd ee6c 8b40 f827 8c3f
00000070: 499f 1fc0 c286 86be 1e0d 5a40 cadf a4c0
00000080: 9a86 1ac0 9a89 263f f501 03bf 4351 0f41
00000090: f45a 86c0 8d18 c13f c7fb 3e3f f845 453f
000000a0: f0d2 5e40 dad5 f63e 260f c740 b9bd e33f
000000b0: 97cb 34bf a686 d5bf b16c b03f c8f5 8440
000000c0: cca8 34bf 985f 7c3f 85da a0bf 0ddf f13d
000000d0: 1a4b 4f40 544b 1bc0 4e62 6240 bbe4 0840
000000e0: cac4 c2bc 2b94 dd3f 7fc5 2a40 fcfb 413f
000000f0: 8e18 683f 4458 0640 7af4 39c0 8159 90c0
7.7547984 0.4908826 -2.4832497 6.68463 1.3100481 -3.462814 -2.8413193 -2.3834484
4.1821036 2.293524 -1.1512887 -0.83958274 -3.9678688 1.3714118 -1.9471785 0.7665503
4.8593006 -3.1541834 -1.1036001 0.12964918 0.2628115 3.6393864 1.7816838 2.0982287
1.4630356 -0.04000597 4.357047 1.0949697 -2.494097 -0.26274687 3.4070506 -5.152318
-2.4144654 0.65053713 -0.5117486 8.957339 -4.1986027 1.5085617 0.7460293 0.7705989
3.4816246 0.4821003 6.220599 1.7792274 -0.70623153 -1.6681716 1.378317 4.1550026
-0.70570064 0.98583364 -1.2566687 0.11810122 3.2389588 -2.4264727 3.53725 2.1389606
-0.023775477 1.7310842 2.6683042 0.7577512 0.9066247 2.0991373 -2.9055467 -4.510926

l2.bias f4 [8]
00000000: 5e1d 3abf e25b 42bd 5261 81bd 760f 1d3f
00000010: 7e3f 213f a110 0d3c 0543 e9be 03c1 a9bf
-0.7270106 -0.047450908 -0.063173905 0.61351717 0.62987506 0.008609922 -0.45558944 -1.3262028

l3.weight f4 [442, 8]
00000000: b0d4 a3be 7f78 3d3f d049 f5bd 7e99 c3bf
00000010: 0cfd 25c0 5b56 2fc0 710a 40c1 b973 1bbe
00000020: 95fd 98bf 4b96 abbf 115e 6ebf 4a05 31bf
00000030: e5de 86bf 029f 1dbf e2c9 60c1 05a0 46c0
00000040: 2ce2 0cbf 0de6 25bf 28a4 a1c0 06d9 d83e
00000050: 3192 45be 294a fbbf 3cf4 28c1 8bcf 00c0
00000060: 2a7f 603f 09a0 3dc0 b22e b8c0 1b38 34be
00000070: c4a5 943f f3a2 6ac0 6ae6 1ec1 229d 10c0
00000080: c299 19c0 8156 b3be 80bb 95bf 441b b5b9
00000090: 862c 99bf 8651 e5be ccc6 22c1 ac8e 8ac0
000000a0: 562a 583f 7d7b 08c1 c4bf 97bf 1188 4ec0
000000b0: 88a5 9ebf e3e2 a2bf 5104 f7c0 0de9 59c0
000000c0: dc83 1f3f d23d 1dc1 fd0a e53e fb71 c5c0
000000d0: 95ca 2e3e 2d87 3ec0 9d49 e8c0 9c71 19c0
000000e0: 95c4 63be 9aad 30c0 3c7d 59bf c6ca 42c0
000000f0: 9100 19bf 5a91 85bf c4ae 03c1 0aaa 4ac0
00000100: 124e 5bbf e9df f7bd 8624 e9be a296 8fbf
00000110: c1f3 973d dfeb 74c0 dc7b 22c1 b1ee 3b3f
00000120: 64ae 2ebf 2c86 4ebe 44d5 75bf d113 03c0
00000130: 9d45 eebd e791 14c0 5c3f 62c1 998b 98bd
00000140: 0000 e2be f724 6ac0 8290 bebf 9e43 09c0
00000150: 6447 5f3f 2715 02c0 88da e6c0 182c fec0
00000160: 2be5 7ebf cf3f 113f 56c5 a8bf 3389 4bc0
00000170: bc54 0ac0 b6a0 8fbe 0d57 0dc1 d0e2 53c0
00000180: 460a 99bf 9130 f8c0 a897 14bf 7cae 933f
00000190: 7cb7 f2be c28a 69bf 4087 27c1 57f1 dbc0
000001a0: bebe 9cbe 88ab 42bf 7b89 efbe 2e19 f3bf
000001b0: b0d6 64c0 0223 c1bf fc6d b7c0 df96 3dc1
000001c0: 7370 89c0 c8bd d7be 7f69 573e b4d4 42bf
000001d0: 8a0e f3bf 502b 6c3e a768 15c1 8c1f d9c0
000001e0: 55c3 11bf 41c1 68c0 352d 6a3d e324 813e
000001f0: 29a2 97c0 02b1 8ebf 576e 1bc1 fb54 32bf
00000200: 2391 99c0 baf2 b1c0 275d 3b3f 46d8 333f
00000210: b9d0 12bf 2a76 debe 3e66 1bc1 762b 1fc0
00000220: c560 b63e 6927 4b3e 6bac b5bf 6581 83c0
00000230: 3b75 eabf d290 8fbf e8c7 f7c0 79a4 2dc1
00000240: 9024 763d c16c ee3e c61e 29c0 ac8b c3be
00000250: 9ed6 10bf 002d 8ac0 0564 f6c0 4ccd 93be
00000260: 496c b7be 3e24 a6c0 7581 b6c0 12c7 b0bf
00000270: 4e14 63bf 4817 87be b7bd ffc0 d03c f8bf
00000280: ac9f 36c0 3ed8 17bf cd2d 90bf 5409 e03e
00000290: 3469 bc3e c6e1 02c0 57f3 4dc1 53ca 91be
000002a0: 36fe a7bd 2e9d 1ec0 1165 563e b12a 11c0
000002b0: 08f6 483e 3992 10c0 d392 15c1 1bc9 14c1
000002c0: 1242 12c0 5a32 69c0 9371 43c0 3d6e aa3f
000002d0: 3c79 9c3e 3c43 8bbf ece3 1ac1 db98 5ec0
000002e0: 11cc 723f e84d ebc0 a23e 6d3e 0d79 a03a
000002f0: 88e0 24c0 feaf 10c0 f6ca 0ec1 31f0 d7c0
00000300: 1927 ffbd 6afd acc0 5c34 b5bf 95f6 cfbf
00000310: 62c1 6d3f 5f1b 41c0 b50a e6c0 e864 08c0
00000320: c271 8abf 8c4d fbbf 6f90 40bf 3073 a3bf
00000330: 5bd7 f23d 685e 90bf 80f0 0dc1 5f22 fcc0
00000340: f5a4 20bf 0d00 adbe 0f28 9cbf 2ac2 94bf
00000350: e2e1 94c0 635d 69be ca74 02c1 b435 e7c0
00000360: fd02 40c0 4a9e eabf 1d83 4bc0 44d7 b33f
00000370: be47 a9bf cbc6 2dbf d14f 27c1 e013 d1be
00000380: 991e 91bf 7fce a2bf 4460 1bc0 9cf9 f83d
00000390: 215a 6ebf 9eb2 bfbf 8f36 42c1 7cb3 d4be
000003a0: 43e8 09bf c021 fdbe 1be8 47bf 9907 e4be
000003b0: e349 b2bf b4e3 cbbf 953c 0ac1 ffe1 07c1
000003c0: 1837 3cc0 5779 2cc0 9fb8 87bf b5e1 95be
000003d0: 7988 babf 7f55 853e 9fe5 0ac1 f3e0 b0c0
000003e0: b411 8ac0 58c4 78c0 31bf 6cbe 9aaa 23be
000003f0: 8d69 2e3e e5bb d53c 629e 3cc1 2b0e 00c0
-0.31998205 0.7401199 -0.11976969 -1.5281217 -2.5935698 -2.7396457 -12.002549 -0.15180863
-1.1952387 -1.3405241 -0.93112284 -0.69148695 -1.0536772 -0.6157075 -14.049288 -3.1035168
-0.5503261 -0.64804155 -5.0512886 0.42353076 -0.19294049 -1.9632007 -10.559628 -2.0126674
0.87694037 -2.9628928 -5.7557 -0.17599528 1.1613088 -3.6661956 -9.931253 -2.2595906
-2.4000096 -0.35026935 -1.1697845 -0.00034543325 -1.1966712 -0.4478876 -10.173534 -4.329916
0.844396 -8.5301485 -1.1855397 -3.2270548 -1.2394266 -1.272549 -7.719277 -3.4048493
0.62310576 -9.827593 0.44734946 -6.1701636 0.17069466 -2.9770005 -7.258986 -2.3975592
-0.22242959 -2.7605958 -0.8495672 -3.0436263 -0.5976649 -1.0434983 -8.230167 -3.1666284
-0.85666 -0.12103254 -0.45535678 -1.1217844 0.07419539 -3.8268964 -10.155239 0.7341109
-0.6823485 -0.2016837 -0.9602854 -2.0480845 -0.116343714 -2.3214052 -14.140469 -0.07448501
-0.44140625 -3.6585062 -1.488785 -2.144752 0.8721831 -2.032541 -7.214176 -7.9428825
-0.9956843 0.5673799 -1.3185222 -3.180249 -2.1614218 -0.280523 -8.833753 -3.3107185
-1.195626 -7.7559285 -0.5804391 1.1537623 -0.47405612 -0.9122735 -10.47052 -6.8732104
-0.30614275 -0.76042986 -0.46784577 -1.8992059 -3.5756035 -1.5088809 -5.732176 -11.849334
-4.2949767 -0.4213698 0.21036337 -0.7610581 -1.8988812 0.23063397 -9.33805 -6.785101
-0.5693868 -3.6367953 0.05717202 0.25223455 -4.738545 -1.1147768 -9.714438 -0.6966092
-4.798967 -5.5608797 0.73189014 0.7025188 -0.57349735 -0.43449527 -9.712461 -2.4870276
0.35620704 0.19839253 -1.4193243 -4.109545 -1.8317026 -1.1216071 -7.7431526 -10.852654
0.060093462 0.46567348 -2.6425033 -0.381925 -0.5657748 -4.317993 -7.6997094 -0.28867567
-0.35824803 -5.191924 -5.703303 -1.3810751 -0.8870286 -0.2638495 -7.9919086 -1.9393559
-2.8534956 -0.59314334 -1.1263977 0.43757117 0.36799014 -2.04503 -12.871909 -0.28474674
-0.08202784 -2.4783435 0.20936991 -2.2682307 0.19625103 -2.2589247 -9.348346 -9.299098
-2.2852826 -3.6436982 -3.053807 1.3314892 0.30561244 -1.0879893 -9.680645 -3.4780796
0.9484263 -7.35326 0.23168424 0.0012243107 -2.5762043 -2.2607417 -8.924551 -6.7480702
-0.12458629 -5.4059343 -1.4156604 -1.6247126 0.92873204 -3.0172956 -7.188807 -2.1311588
-1.0815966 -1.963304 -0.7522039 -1.2769527 0.11857482 -1.127881 -8.871216 -7.8791957
-0.62751704 -0.337891 -1.2199725 -1.1621754 -4.6525736 -0.2278953 -8.153513 -7.2253056
-3.0001824 -1.8329556 -3.1798775 1.4050069 -1.3225019 -0.6788146 -10.456986 -0.40835476
-1.1337463 -1.2719268 -2.4277506 0.12156984 -0.93106276 -1.4976385 -12.13832 -0.41543186
-0.5387003 -0.49439812 -0.7808854 -0.44537047 -1.3928798 -1.5928864 -8.639791 -8.492675
-2.9408627 -2.694906 -1.0603217 -0.29273763 -1.4572898 0.2604179 -8.68106 -5.5274596
-4.314661 -3.8869839 -0.23119809 -0.15983048 0.17032452 0.026090572 -11.788668 -2.0008647

l3.bias f4 [442]
00000000: 7117 06c1 09e4 c8c0 8aa3 0dc1 952f 11c1
00000010: e035 11c1 193e 31c1 ca2c 37c1 3a78 20c1
00000020: 9044 0dc1 870a b0c0 464e 2dc1 9abb 20c1
00000030: 054c 14c1 70b6 39c1 e7fa 1ac1 fc5a 12c1
00000040: eed4 18c1 e746 2ac1 dd5a 2dc1 d6e0 2dc1
00000050: 1d43 edc0 a602 17c1 2994 14c1 9606 24c1
00000060: 1d2b 33c1 ce4b 0fc1 d8f3 1dc1 5ab8 12c1
00000070: f4ce fdc0 aa0d 1bc1 9a86 23c1 c9d0 ffc0
00000080: 67f3 0ac1 fba4 1ec1 8359 0cc1 7d13 27c1
00000090: 83cf d7c0 bcb0 13c1 c6dc 26c1 2bb5 11c1
000000a0: 0870 30c1 61cd 35c1 9dc6 25c1 1720 23c1
000000b0: 8d6a 11c1 a75e 24c1 1e4f f9c0 32f0 20c1
000000c0: 5d55 2ec1 7105 29c1 8799 0fc1 91ba 1cc1
000000d0: 12c9 fbc0 86a2 28c1 03ab 18c1 2026 2cc1
000000e0: e5a8 30c1 ac9d 0fc1 fe7c 16c1 eee4 0fc1
000000f0: b957 25c1 3faa 12c1 c988 00c1 5175 0ec1
00000100: 7d11 06c1 51c4 0fc1 f196 11c1 0b83 f2c0
00000110: 2e7b 0bc1 5f54 16c1 b1be 14c1 ea26 20c1
00000120: b37e 19c1 52bb 1dc1 5efd 1fc1 558c 1cc1
00000130: a680 11c1 edd5 48c1 a464 26c1 eb43 00c1
00000140: dd21 17c1 b95a f4c0 2594 12c1 6213 20c1
00000150: 9c5b 19c1 c58f 28c1 1078 16c1 a167 1ec1
00000160: 6d05 e8c0 d4bd 22c1 1c05 07c1 e600 0cc1
00000170: 149c 26c1 122e 2bc1 9064 26c1 9335 23c1
00000180: 6697 27c1 7e77 1dc1 99a8 32c1 9fa3 01c1
00000190: 680b 04c1 cccd 33c1 8dd4 3cc1 f496 1bc1
000001a0: a8e0 2fc1 98d2 1bc1 48cd 11c1 51c1 25c1
000001b0: de16 e6c0 90e7 03c1 3f01 24c1 0b6e 33c1
000001c0: 144d 25c1 3625 24c1 90bd 03c1 907a 14c1
000001d0: 372a 29c1 6b3d 21c1 b3c1 16c1 2fd9 2ac1
000001e0: ab40 28c1 277b 1dc1 ebbd 1ac1 6d02 1cc1
000001f0: 99d9 09c1 f1e8 25c1 d7c5 2bc1 c8e5 26c1
00000200: 4236 2cc1 ef34 3bc1 f75a 29c1 47b4 20c1
00000210: d76b 2ac1 6fb8 19c1 2844 27c1 9b87 35c1
00000220: e19e 30c1 046d 29c1 9ef7 25c1 e49e 0bc1
00000230: 41dd 1ac1 b048 22c1 5fd2 f3c0 152b 0ac1
00000240: e84a 30c1 e51d 1ac1 3e32 15c1 5cd1 27c1
00000250: 693b 09c1 a4cc cec0 987f 0ec1 16da 11c1
00000260: fc35 d0c0 ca3b 1fc1 3464 01c1 2cbc d5c0
00000270: 91d3 2bc1 c97a 2ec1 bb92 34c1 a982 33c1
00000280: 7d6b 20c1 ee27 33c1 2090 33c1 4ac0 20c1
00000290: 9970 34c1 cce9 01c1 e124 2bc1 f003 2bc1
000002a0: 94f5 12c1 6b6a 2fc1 00ba 24c1 b2b8 20c1
000002b0: 16c6 28c1 e736 36c1 4b0e 3ac1 0e5b 28c1
000002c0: 1598 32c1 f38d 2ac1 5b91 29c1 34ca 38c1
000002d0: 2e80 2dc1 e30f 3bc1 1db5 17c1 7b40 35c1
000002e0: 5c49 2dc1 cb4d 26c1 90d4 1dc1 311e 3ec1
000002f0: 313b 26c1 cb98 29c1 8512 2fc1 55f7 25c1
00000300: fa97 34c1 9e8c 31c1 82a7 35c1 a961 39c1
00000310: c3cf 2ac1 6436 efc0 361e fcc0 95f0 22c1
00000320: f4c1 27c1 5d44 0fc1 1d60 24c1 066d 1ac1
00000330: de8b 1dc1 d906 16c1 03b4 2ac1 535e 02c1
00000340: 048e 15c1 50a6 33c1 7fc0 13c1 d0dd 07c1
00000350: 3260 05c1 27a8 29c1 2970 19c1 f03a 19c1
00000360: 7066 20c1 1227 13c1 6f45 2ac1 d711 1fc1
00000370: 7bd1 f5c0 1da0 02c1 0bb4 01c1 f0b0 e4c0
00000380: 3bd4 eec0 20a7 f1c0 567d 03c1 4022 eac0
00000390: 3c73 0cc1 bc5f 20c1 526c 0ac1 fb35 12c1
000003a0: d537 d7c0 243d 06c1 bce6 15c1 3e9a 1ec1
000003b0: a649 25c1 322a 06c1 7553 e8c0 4869 15c1
000003c0: f7b6 2dc1 97ea e1c0 bce4 e5c0 20a4 11c1
000003d0: 4f05 2cc1 c4bf 22c1 9cdf 3bc1 1ff6 32c1
000003e0: 8167 39c1 cd47 27c1 cf33 37c1 1748 19c1
000003f0: 4eb0 d4c0 ea81 fbc0 f477 20c1 9ac2 1bc1
-8.380723 -6.2778363 -8.852427 -9.074117 -9.075653 -11.077661 -11.448435 -10.029352
-8.829239 -5.501285 -10.83161 -10.045801 -9.268559 -11.60704 -9.686255 -9.147213
-9.551985 -10.64231 -10.834683 -10.867392 -7.4144425 -9.438147 -9.286172 -10.251608
-11.198026 -8.956007 -9.872032 -9.170008 -7.931513 -9.690836 -10.220362 -7.9942365
-8.684424 -9.915278 -8.771853 -10.442258 -6.744081 -9.230648 -10.4289 -9.10673
-11.027351 -11.362641 -10.36099 -10.195334 -9.088513 -10.2731085 -7.790908 -10.058641
-10.895841 -10.563828 -8.974982 -9.795548 -7.8682947 -10.539679 -9.541751 -10.759308
-11.041234 -8.975994 -9.405516 -8.993391 -10.333917 -9.166564 -8.033395 -8.903642
-8.37927 -8.985429 -9.099351 -7.5784965 -8.717573 -9.395598 -9.2965555 -10.0095005
-9.593432 -9.8582325 -9.999357 -9.784261 -9.093908 -12.552228 -10.39957 -8.016582
-9.445767 -7.6360745 -9.161168 -10.004732 -9.584866 -10.5351 -9.404312 -9.9003
-7.2506623 -10.171345 -8.438747 -8.750219 -10.413105 -10.698748 -10.399551 -10.20058
-10.4744625 -9.841673 -11.166162 -8.102447 -8.252785 -11.237743 -11.801892 -9.724354
-10.992348 -9.7389145 -9.1126175 -10.359696 -7.1902914 -8.244034 -10.250304 -11.214366
-10.331318 -10.259085 -8.23378 -9.2799225 -10.572806 -10.077495 -9.42229 -10.678023
-10.515788 -9.8425665 -9.671367 -9.750592 -8.615624 -10.36937 -10.735801 -10.431099
-10.763247 -11.700423 -10.584708 -10.044013 -10.651328 -9.607528 -10.45414 -11.345607
-11.038789 -10.589115 -10.372953 -8.726292 -9.679017 -10.142746 -7.61943 -8.635518
-11.018288 -9.632298 -9.324766 -10.488613 -8.577004 -6.4624805 -8.906151 -9.115744
-6.50659 -9.952097 -8.086964 -6.67922 -10.739152 -10.904977 -11.285823 -11.219399
-10.026242 -11.197248 -11.222687 -10.046946 -11.27749 -8.119579 -10.696504 -10.688461
-9.184956 -10.963481 -10.29541 -10.045092 -10.548361 -11.388404 -11.6284895 -10.52223
-11.162129 -10.659656 -10.597987 -11.549366 -10.843794 -11.691379 -9.481717 -11.328242
-10.83041 -10.393992 -9.864395 -11.882371 -10.389451 -10.599803 -10.942021 -10.372884
-11.287104 -11.09683 -11.353395 -11.586343 -10.675723 -7.4753895 -7.878688 -10.183736
-10.484852 -8.95419 -10.273465 -9.651617 -9.846647 -9.376672 -10.668948 -8.148028
-9.347172 -11.228104 -9.234496 -8.491653 -8.335985 -10.603553 -9.589883 -9.576889
-10.025009 -9.197039 -10.641952 -9.941855 -7.6818213 -8.16409 -8.106456 -7.146599
-7.463407 -7.551651 -8.2181 -7.316681 -8.778133 -10.023373 -8.651445 -9.138179
-6.7255654 -8.389927 -9.368832 -9.912657 -10.330481 -8.385302 -7.2601876 -9.338203
-10.857169 -7.0598865 -7.1841717 -9.10257 -10.751296 -10.171818 -11.742092 -11.185088
-11.5877695 -10.4550295 -11.450149 -9.5801 -6.6465216 -7.8596087 -10.029285 -9.73501
